local-assist-pipeline/snowboy/models/Ok_Nestorr.tflite (tflite, 206748 bytes, 9 tensors)

Const_1 f4 [32]
000000 1c 6f 46 bc 8a 2e fa 3b b0 f8 fd 3b e4 9c 1f bc
       -0.0121114515 0.0076349424 0.007750593 -0.0097419955
000010 b0 84 38 bc 9b 71 9f bc 97 f2 19 bc 3a 2e 49 bb
       -0.011262104 -0.019463351 -0.009396217 -0.003069772
000020 39 7c bd 3c 59 84 cd 3c 23 9f 8f bc 5c ea 46 3c
       0.023130523 0.025087522 -0.017531937 0.012140837
000030 4b 41 1d 3c a3 11 51 bc f5 46 0d bc 37 12 35 3c
       0.009598087 -0.012760553 -0.0086228745 0.011051706
000040 41 1c fe 3b 98 e8 f8 3b 2e cd 74 bc 8c b0 51 bc
       0.007754833 0.0075960867 -0.014941497 -0.01279844
000050 cf 24 89 bc 22 02 f1 bb ef 3f c9 bc a7 ab da 3c
       -0.016741185 -0.0073549906 -0.024566619 0.026693178
000060 19 99 93 bb cd 40 3a 3c b7 39 ee ba de 76 af bb
       -0.0045043346 0.011367989 -0.0018175159 -0.0053547462
000070 f8 dd ce bc a7 7a 50 bc 8f 6e 4d 3c 88 66 b9 3c
       -0.025252327 -0.012724555 0.012538566 0.022631899

Const_2 f4 [32]
000000 03 04 7f 3f 00 56 80 3f e1 c6 7f 3f 6d a6 80 3f
       0.99615496 1.0026245 0.9991284 1.0050789
000010 ab 3b 80 3f a2 18 78 3f f6 a3 7f 3f 1a 47 7f 3f
       1.0018209 0.96912587 0.9985956 0.9971787
000020 66 ee 7e 3f 59 44 83 3f d7 d2 7f 3f e5 3d 7f 3f
       0.9958252 1.0255233 0.9993109 0.9970382
000030 ee a0 7f 3f ab 0d 7b 3f b8 4a 82 3f ec 31 82 3f
       0.99854934 0.9806773 1.0179052 1.0171485
000040 b6 87 89 3f 84 8f 7f 3f 82 a8 7f 3f e0 3c 80 3f
       1.0744541 0.9982836 0.998665 1.0018578
000050 c4 54 7f 3f 9f 1b 84 3f 1f 50 7c 3f 81 a8 80 3f
       0.9973872 1.0320929 0.98559755 1.0051423
000060 e9 e4 81 3f 01 be 7f 3f ef a5 80 3f 1f c6 81 3f
       1.0147983 0.998993 1.0050639 1.0138587
000070 ed 86 7f 3f 2a 01 82 3f f4 58 81 3f 9d 33 76 3f
       0.99815255 1.0156605 1.0105271 0.96172506

Const_3 f4 [32]
000000 36 18 5c bb ad 58 81 bb 50 38 15 3b 83 b5 58 3c
       -0.0033583767 -0.0039473386 0.002276916 0.0132268695
000010 8c 7a 5d 3b 58 49 cb 3c 2d 67 98 b9 c5 31 42 bc
       0.0033794967 0.024815246 -0.0002906857 -0.011852686
000020 4c c4 3a bc 43 0a 5c 3c 6a 39 31 3c 4d 0d cd ba
       -0.01139934 0.013430181 0.010816911 -0.0015644223
000030 25 36 ff bb 5b 51 32 ba 9e 0a e8 3c c7 a4 13 3c
       -0.007788437 -0.0006802284 0.028325375 0.009011454
000040 76 75 be 3c 13 47 12 bc 3c 38 17 bc 59 55 15 bc
       0.02324937 -0.008928078 -0.009229716 -0.009114587
000050 2f e7 56 3b bb 73 9f 3c ff 12 3c 3c 74 25 4f 3c
       0.0032791605 0.019464364 0.011479138 0.012643207
000060 21 1b ce 3b 2d 30 27 bc d3 4a 81 3c c5 ec ad 3c
       0.006289855 -0.010204357 0.01578275 0.021231065
000070 1b 63 a9 bb 72 04 00 3c 1c 1c 05 3d 2d 3a 9e 3c
       -0.005169285 0.00781356 0.03249751 0.01931485

Const_5 f4 [32]
000000 af 4a 1a be e3 12 7d bd 23 2b 89 bd 8f 8a dd bd
       -0.15067552 -0.06178559 -0.06697681 -0.108174436
000010 90 fb 1a bd b3 f6 c0 3c cf 46 3b 3d 84 d0 43 bc
       -0.037837565 0.023555135 0.045721825 -0.0119515695
000020 e3 1a 03 be d9 62 aa bd 63 1c b0 bd 6d bb d3 bc
       -0.12803225 -0.08319635 -0.08599164 -0.025846208
000030 03 cc 62 3a 3c d0 b7 3d 38 a3 97 bd 9d eb 22 3e
       0.0008651616 0.089752644 -0.074041784 0.15910192
000040 57 13 4e 3d 55 99 52 3d 03 95 0c be 5a bf 45 3d
       0.050311413 0.05141576 -0.13728718 0.04827819
000050 2c e1 8b bd e5 e0 02 3e d4 16 bf bc 4c 1e 98 bd
       -0.068300575 0.12781103 -0.023326315 -0.07427654
000060 d5 54 3e be d2 e5 95 3d da d0 b7 3d 32 bf 3e be
       -0.18587048 0.07319225 0.08975382 -0.18627623
000070 27 bf 14 be f7 8a 0f be fd f2 fd 3d 4a 48 0b 3e
       -0.14526044 -0.14017855 0.12399862 0.13601795

Const_6 f4 [32]
000000 dd 15 aa 3f a9 7d 81 3f 22 1e 80 3f 55 bb 80 3f
       1.3287922 1.0116473 1.0009196 1.0057169
000010 02 3e a0 3f 4d 98 7d 3f 4a e3 81 3f 80 9d 86 3f
       1.2518923 0.9906052 1.0147488 1.0516815
000020 44 96 72 3f 15 30 82 3f 00 bb 83 3f 4a 42 85 3f
       0.9476054 1.0170923 1.0291443 1.0410855
000030 8a ca 7e 3f 84 ef a6 3f b9 a6 80 3f 1c 73 84 3f
       0.995278 1.3041844 1.005088 1.0347629
000040 a3 7d a3 3f 06 74 8c 3f c5 23 87 3f 1c 78 7d 3f
       1.2772716 1.0972908 1.0557791 0.990114
000050 9c 50 a6 3f 06 33 80 3f 50 78 a1 3f a4 00 80 3f
       1.299335 1.0015571 1.2614841 1.0000196
000060 62 7b a4 3f 88 a5 83 3f 9f b5 72 3f 9b b9 84 3f
       1.2850153 1.0284891 0.9480838 1.0369142
000070 05 ad 8e 3f ca 2a 7f 3f 55 d1 81 3f 33 ca 83 3f
       1.1146551 0.99674666 1.0142008 1.0296081

Const_7 f4 [32]
000000 bb 5d 95 3e 19 3f c5 bb d9 ed b4 ba 58 3d dc 3c
       0.29173073 -0.0060194847 -0.0013803794 0.02688472
000010 ba 50 88 3e de 69 d3 ba 00 2b ba 3a bd 66 fa 3c
       0.2662409 -0.0016129573 0.0014203489 0.030566568
000020 c2 05 79 bd 44 4c 38 3c 1c 9c 31 3c 10 63 52 3c
       -0.060796507 0.011248652 0.010840442 0.012841001
000030 1e 68 fe bb f4 46 94 3e f0 9b 31 3c 54 4e 8b 3c
       -0.0077638766 0.28960383 0.010840401 0.017005123
000040 cc 2a 8b 3e f7 91 aa 3d 1f 15 ef 3c d9 02 c7 bc
       0.2718109 0.08328622 0.029184876 -0.02429335
000050 44 b5 8f 3e 8a 1f e4 39 7c 3d 8a 3e 03 b4 ba ba
       0.28067982 0.00043511047 0.27000034 -0.0014244322
000060 e7 ab 92 3e 59 d3 a0 3c fb e2 93 bd 8e c3 06 3d
       0.28646776 0.019632028 -0.072210275 0.03290134
000070 f1 3b 69 3d 68 86 2b bc d9 38 58 39 21 1d bd 3c
       0.05694193 -0.010469057 0.00020620543 0.023085179

MatMul f4 [32, 1536]
000000 17 c6 82 bc fb d3 82 bc 35 9e ac bb 93 20 9b bc
       -0.015963597 -0.01597022 -0.005267883 -0.018936431
000010 2e 1f 64 3c d1 28 a2 bc 8c 55 cd 3c 33 61 b9 3c
       0.013923449 -0.019794853 0.025065206 0.022629356
000020 70 5d f5 bc 88 56 c9 3c 74 c5 9e ba 6f af 83 bb
       -0.029951781 0.024577394 -0.0012113289 -0.004018716
000030 56 b5 57 bc ea fe 32 3c d7 62 a0 bc 9c fa 64 3c
       -0.013165792 0.010925034 -0.01957838 0.013975766
000040 b5 25 a9 bc 4c cc 29 bc 5f a7 5d 3c 31 b2 e0 3c
       -0.020647863 -0.01036365 0.013528674 0.027428718
000050 a7 e9 94 3c e1 ca 63 bb 49 96 1b bb d4 79 e1 36
       0.01817782 -0.0034758376 -0.00237407 6.719705e-06
000060 b4 59 f0 ba 67 56 7e 3b 98 7c 06 3c dc 27 40 bb
       -0.001833728 0.0038808824 0.008208416 -0.0029320633
000070 ba 58 90 bc 73 7e ab 3c 1a a7 1f 3c cb 5a 25 3c
       -0.017620433 0.02093432 0.00974443 0.0100924475
000080 0e c1 0e bb d2 8c d7 3c 9d 22 a2 3c 2e 36 9e bb
       -0.002178255 0.026312266 0.019791896 -0.004828236
000090 97 7f ff b9 0c 67 cf 3c c4 73 30 bc d3 e0 6b 3a
       -0.00048732452 0.025317691 -0.010769788 0.000899804
0000a0 51 ec 16 3c d5 a7 fc bc e5 5a 31 bb 09 b3 66 3c
       0.009211616 -0.030841747 -0.0027062234 0.014080771
0000b0 0e b7 46 3c 73 4c 2a 3c 7b f8 c4 3c c4 34 d1 bc
       0.012128605 0.0103942035 0.024044266 -0.025537856
0000c0 fb 6a aa 3b bb b2 ae 3c ba 13 ea 3c 79 e4 57 bc
       0.0052007413 0.02132546 0.02857386 -0.013177031
0000d0 c1 8c ea bc f2 9f bc 3c a0 cb 9f bb d2 7c 9b bc
       -0.02863157 0.023025487 -0.004876569 -0.018980417
0000e0 8f 16 ba 3b f7 f7 43 b9 17 48 94 bb 9f e3 fd 3b
       0.0056789587 -0.00018689023 -0.0045251953 0.007748082
0000f0 ef f8 1e bc 90 82 13 bc fd 31 c3 bc 8f 48 11 3c
       -0.009702905 -0.0090032965 -0.023827547 0.008867397
000100 85 95 8e 3c bc a9 9d bb 2b 7d 5d 3c 6b 79 02 bb
       0.01740528 -0.0048114937 0.013518612 -0.0019908797
000110 ac a8 4c 3b d3 9e cd 3c 2b 72 07 bc 69 58 62 3c
       0.0031228466 0.025100147 -0.008266966 0.013815024
000120 82 f7 32 bc ab 47 bb ba 2f e9 16 3c 86 35 73 3a
       -0.010923268 -0.0014288326 0.009210869 0.000927769
000130 1d 42 f3 3b 09 60 ab bc 57 16 a3 bc 9e 84 2e bc
       0.007423653 -0.020919817 -0.019908113 -0.010651736
000140 99 1f 1d 3c 42 6c a4 bc 22 24 8b bc f7 f1 d1 3c
       0.009590053 -0.020071153 -0.016985003 0.025628073
000150 47 58 82 3c 63 18 92 bc f9 b8 96 bb b5 b4 30 bc
       0.015911235 -0.017833894 -0.004599687 -0.010785271
000160 03 89 c8 3a d8 0c 8e bc 0b 51 23 3c 3c 12 4d 3c
       0.0015299622 -0.017340109 0.009968053 0.012516554
000170 dd 64 26 3c 5f 0f 8d 3c 6b b3 32 3c ae 66 76 3c
       0.010155884 0.017219244 0.010907034 0.015039129
000180 fe 7a d0 3c 16 b1 ae 3c 71 98 90 3c 95 c4 9d bc
       0.025449272 0.021324676 0.017650815 -0.019258777
000190 08 9d 96 3b 1e dc 9d 3c 92 54 9d bc 04 fb 64 3c
       0.0045963563 0.01927 -0.019205365 0.013975862
0001a0 00 ad 43 3c 23 e9 95 bb 91 be f5 bb ae e7 78 bc
       0.011943102 -0.004574911 -0.007499524 -0.0151919555
0001b0 26 fb 48 3c 75 ab a6 bc 21 e7 0e 3c 54 b3 c5 bc
       0.01226691 -0.020345429 0.008722098 -0.024133362
0001c0 7c 2d 99 bc c5 aa b6 3c 7b 10 0d bc 89 1f cb 3c
       -0.018698446 0.022298226 -0.008609886 0.02479531
0001d0 74 26 80 3c b1 0e dc bb a7 c0 25 3c 03 61 7f 3c
       0.015643336 -0.0067156185 0.010116733 0.015587094
0001e0 c5 ec 92 bc 79 cb f9 3b 22 32 b3 3b f4 81 a6 bc
       -0.017935166 0.007623133 0.005468623 -0.020325638
0001f0 75 3c e4 3a 8f 46 06 bc df 6a 84 bc 33 25 40 3c
       0.0017413037 -0.008195533 -0.016164241 0.011727619
000200 f1 08 50 bb 96 c2 87 bb 29 23 68 3b 81 c9 f7 ba
       -0.003174361 -0.0041430695 0.0035421348 -0.0018904657
000210 08 3b 06 3c d2 1b b9 3c 80 55 1c 3b 06 00 af bc
       0.008192785 0.022596274 0.0023854673 -0.021362316
000220 fd c0 9d bc 8e 3c 82 bb 20 c4 50 bc 29 65 03 bc
       -0.019257063 -0.003974504 -0.012742072 -0.008019724
000230 9e 5d 5b 3c 18 96 82 3b 09 7e f2 bb dd d1 a5 bc
       0.013389019 0.0039851777 -0.0074002785 -0.020241672
000240 54 4b 8f 3c 84 5b 11 38 05 c1 e5 bb 1f 55 2a 3c
       0.017491974 3.4655925e-05 -0.007011535 0.010396271
000250 8d 19 6e bb b6 af 20 bb 9f 6e 92 3c 55 95 47 3c
       -0.0036331147 -0.0024518794 0.017875014 0.0121816
000260 8b 46 16 bb c1 28 b2 bc 61 63 af bc b3 56 c9 3a
       -0.002293023 -0.021747949 -0.021409692 0.0015360921
000270 86 d8 b3 3c 29 6a cc 3c 60 7b ea 3b 7b 14 f8 bb
       0.021953832 0.024952965 0.0071558207 -0.007570801
000280 40 e5 d5 bb 8f cf 92 3c a1 ad ba 3c 33 49 ea bc
       -0.006527573 0.017921237 0.02278787 -0.028599357
000290 29 d2 df 3c 9a dd 87 3c 01 c1 43 bc a8 90 b7 3b
       0.027321892 0.01658516 -0.011947871 0.005601961
0002a0 60 61 02 3c bd 02 a3 3c a3 7e 45 ba ad 6b 39 bc
       0.007957786 0.019898767 -0.0007533824 -0.011317176
0002b0 d5 72 e6 3a 10 c7 33 3b 2d 62 7d 3c 7d 36 ce bc
       0.001758183 0.0027431883 0.015465301 -0.025172466
0002c0 e7 8e 05 3c 66 3e d7 3b b6 d9 0f bb 2d 5b 81 3a
       0.008151746 0.006568718 -0.0021949834 0.0009869091
0002d0 e8 8c be 3c f5 88 73 bc ed 03 b6 bc c6 89 cf 3a
       0.023260549 -0.014864196 -0.022218669 0.0015833906
0002e0 57 33 0b 3d 0e fd 61 3c cc b9 e3 3c c5 ac 97 ba
       0.03398451 0.013793243 0.027798556 -0.0011571875
0002f0 60 77 c5 3c 7c 91 03 bc fb 6d 9d 3c 1a b5 44 bc
       0.024104774 -0.008030292 0.019217482 -0.012006069
000300 ba e2 99 bc 5f 76 bd 3c bb ff 7d bc ac df ab bc
       -0.01878487 0.023127733 -0.015502865 -0.020980678
000310 ea 96 d9 3c f4 47 10 bc a7 37 79 bb a7 4c bd bb
       0.02656122 -0.008806217 -0.0038027556 -0.00577696
000320 fa 77 e7 bb cb f8 04 3c 5e b6 ab bb 6f f1 73 3c
       -0.007063863 0.0081159575 -0.0052402457 0.014889105
000330 89 ad aa bb 7e f6 d8 bc 60 d8 0e 3b a9 c3 20 3c
       -0.0052086753 -0.026484724 0.002179645 0.009812274
000340 7e 6b 0a bd fa 5b 34 bc fd d8 b0 bc 46 f5 4d 3c
       -0.03379392 -0.011008257 -0.021587843 0.012570685
000350 26 0f 09 3c 1a 95 9c 3c 7b d3 87 3c fe 11 70 bc
       0.008365428 0.019114066 0.016580334 -0.014652727
000360 28 5d 75 3c 86 8c db 3b f6 3a 98 3a 5b 86 66 3a
       0.014975823 0.0067001013 0.0011614251 0.0008793824
000370 40 1a b0 ba 58 9f bc 3b d1 ce 11 3b ed 02 77 bb
       -0.0013435557 0.0057563 0.0022248516 -0.0037690953
000380 03 8c 9c 3c 84 82 b8 3b 82 da b2 3c a3 ad 88 3c
       0.019109732 0.005630793 0.021832708 0.016684359
000390 b4 38 7d 3c 2c 11 ee ba 92 ab 40 3c 26 58 c7 bc
       0.015455414 -0.0018163077 0.011759656 -0.024334025
0003a0 62 1a f4 3b 30 40 c7 3b ef 1c d0 3c 5d fe c1 bc
       0.007449434 0.00608065 0.025404422 -0.02368086
0003b0 9a c8 c1 3c 67 3c 29 bc d5 4d 87 3c 83 49 dd 3c
       0.023655225 -0.010329342 0.016516605 0.027012592
0003c0 0b 9a 04 3c 3e d4 cc bb 10 1d dc 3c e7 de 1c 3c
       0.008093367 -0.006250887 0.026869327 0.009574628
0003d0 9e ed e1 bc fd e9 f6 3c 7b 4f 86 3c 0d e0 d2 bb
       -0.027579125 0.030140871 0.016395321 -0.0064354003
0003e0 94 7a 09 3c f0 53 74 3c 8d 0b 19 bc 83 51 5e bc
       0.008391041 0.01491259 -0.009341133 -0.013569239
0003f0 23 10 e3 bc 3f da b3 3c c3 b8 ab bb 2c 6b a7 bc
       -0.027717656 0.021954654 -0.005240531 -0.020436846

MatMul_1 f4 [32, 32]
000000 a5 fd 80 bd 80 7c fa bd 42 b1 19 be 5a f0 1a 3e
       -0.06298379 -0.12230778 -0.15009025 0.1513075
000010 17 a2 87 3d 1d 9c f7 bc 26 67 af 3d 67 aa d2 3c
       0.06622713 -0.030225808 0.08564596 0.02571602
000020 67 99 ac 3d f9 a6 95 bd 82 66 9d 3d cf 24 0f 3d
       0.08427697 -0.07307238 0.076855674 0.034947213
000030 f5 42 1b 3e dd ec 38 bd 42 d0 3f 3e a9 d2 09 be
       0.15162261 -0.045147765 0.18731788 -0.13459267
000040 9b a2 2f 3e 0b 38 05 be 03 17 38 3b 28 81 21 3c
       0.17151873 -0.1300966 0.0028089888 0.009857453
000050 d9 82 05 3d 94 15 bf ba 51 aa 87 bd ca ff 69 bc
       0.03259549 -0.0014578574 -0.06624282 -0.014282176
000060 39 07 e9 3d 3a a6 dd 3d 9a 3f a4 3d 5d 0e ed 3d
       0.11378331 0.10822721 0.080199435 0.11575005
000070 31 1f ce 3d 03 06 61 bd 79 88 3d 3d a0 40 75 bd
       0.10064543 -0.054937374 0.04627273 -0.059876084
000080 46 63 27 be c4 9a eb 3b b1 12 93 3d e8 6e 57 3d
       -0.16346464 0.0071900804 0.071812995 0.052596003
000090 ea d2 44 bb c5 b8 84 bc 14 ac 65 bd ab 94 26 3e
       -0.003003294 -0.016201386 -0.05607231 0.1626765
0000a0 9f 03 04 3e 89 a6 e1 bd bf 41 22 3d 58 1a 7b 3d
       0.12892006 -0.11018092 0.03961348 0.06130442
0000b0 35 48 c5 3d d4 b0 a4 bb 6a cd 1e 3e 18 95 c6 3d
       0.09632913 -0.0050259624 0.15508047 0.09696406
0000c0 58 1b 69 3d 36 0a 05 be 8d 17 d3 bc fa 46 f5 bd
       0.056910843 -0.12992176 -0.025768066 -0.11976428
0000d0 01 3b 14 3e ad 10 c4 bd a4 1a 64 3e ee c6 db bd
       0.14475633 -0.09573493 0.22275788 -0.10731302
0000e0 a8 4a b5 bd 93 06 07 3e 84 41 ac bd 5c e2 a4 bd
       -0.0885213 0.13186102 -0.084109336 -0.08050987
0000f0 2a bc d9 bd 6e 0e c5 bd dd f1 2b 3d 7b 33 53 3d
       -0.106315926 -0.09621893 0.041978706 0.051562767
000100 04 8d 61 bd 49 b4 03 3e d9 3b ef bd 5d 9d c0 3c
       -0.055066124 0.12861742 -0.11681337 0.023512537
000110 11 46 c5 bc da 9d 11 3e 81 87 1a 3e 8b 8a 93 3d
       -0.024081262 0.14220372 0.15090753 0.07204159
000120 2a 73 b0 3d 3b 0e 11 bd 4a a7 2a be 3f 1e 76 3d
       0.08615716 -0.03541396 -0.16665378 0.06008744
000130 37 ba 1a be c9 a4 18 3d 8d 88 68 3d f1 5b c9 bd
       -0.15110098 0.037266526 0.05677085 -0.098319896
000140 73 ad 4b 3d ec 02 27 3d 8a cc ed 3d 66 e1 a7 3d
       0.04972596 0.04077427 0.11611278 0.08197288
000150 ac cf 12 3e 54 10 80 3b 6d 85 8c bd c3 67 c5 bd
       0.14337033 0.0039081965 -0.068613864 -0.096389316
000160 c2 e4 3f bd 10 3c 55 3d 78 91 c1 bc d3 1a 14 be
       -0.04684902 0.052059233 -0.023628935 -0.14463358
000170 7f e1 b9 3d 28 2f b4 3d df 3d 89 3c 99 de 43 3d
       0.09076213 0.08798057 0.016753135 0.047819708
000180 1d 02 a9 bd 32 f9 e4 bd 72 99 c3 bd ff 50 0b be
       -0.08252356 -0.11180343 -0.09550752 -0.13605116
000190 6e c4 f3 3d 13 4d e3 3d 27 ed 21 3e f0 80 1d 3e
       0.119027 0.11098685 0.15813123 0.15381217
0001a0 16 08 13 bd 06 37 d3 3d 7e 54 84 bc 38 81 2c 3e
       -0.035896383 0.10313229 -0.01615357 0.16846168
0001b0 db 3f 68 bd b6 ef 0b be 3b 44 9f bd ae 86 41 bc
       -0.056701522 -0.13665661 -0.07776686 -0.011811895
0001c0 ee 43 01 3e 83 f1 4a 3d 57 6f 62 3d 81 ae 41 3e
       0.1262357 0.04954673 0.055281963 0.18914224
0001d0 d1 0f a0 3d aa c8 8c 3d 8d 46 d5 bd fe 66 c9 bd
       0.07815517 0.06874211 -0.10413847 -0.09834097
0001e0 66 94 dc bd 44 5f 18 3e 7c a1 c6 3d b6 09 0b be
       -0.10770492 0.14880091 0.096987695 -0.13577923
0001f0 39 4c bb bc 3e ac 5b 3c 1e c4 22 be dd 94 5a bd
       -0.022863494 0.013407765 -0.15895125 -0.053364623
000200 30 3f 1f 3e 2f d6 1a be 83 1a 1d bd 26 e9 bb 3c
       0.15551448 -0.15120767 -0.03835536 0.022938322
000210 99 17 3a be 4a 60 21 be ad e0 9d bd 8f 50 21 3d
       -0.18173064 -0.15759388 -0.07708869 0.039383467
000220 ad b6 f4 bd 72 44 9d 3d 1f bb 23 3e 27 c8 a5 3d
       -0.11948905 0.076790705 0.1598935 0.08094817
000230 e0 59 79 3d 14 3a 03 3e 09 d9 00 3e 21 0b 8a 3d
       0.060876727 0.12815124 0.12582792 0.06740404
000240 fe 17 83 bb 8b f0 25 be 16 31 ae 3d f1 66 69 bd
       -0.004000663 -0.16205041 0.08505456 -0.05698294
000250 46 98 9e 3c 8d 1f 3b 3d 62 92 9c 3d e4 92 a3 3d
       0.019359719 0.045684386 0.07645108 0.079870015
000260 b4 a4 0d be b5 53 25 be e9 d5 1c 3e 4d f1 29 3e
       -0.1383236 -0.16145213 0.15315975 0.16595955
000270 c8 d5 8a 3d 53 84 96 bd 64 e8 37 be d2 f7 a6 3c
       0.06779057 -0.073494576 -0.17959744 0.020381842
000280 c6 84 e9 bd 8b 24 c9 bd 59 36 e3 3d 2f 28 b5 3d
       -0.11402278 -0.09821423 0.1109435 0.08845555
000290 dc 04 a7 3d 86 47 03 3e ca 3b be 3d 32 18 ad 3b
       0.08155224 0.12820253 0.092887476 0.0052824253
0002a0 df 4c e1 bd 98 41 99 bd 59 ae dd 3d ae 30 33 3d
       -0.1100099 -0.07483214 0.1082427 0.043747596
0002b0 48 2a 5c 3c c1 0b d5 3d c9 6e eb bd c4 e1 9f bc
       0.013437815 0.104026325 -0.1149574 -0.019516833
0002c0 14 29 f0 bd f7 8b 0a be 7f 99 e4 bd 10 db 2a be
       -0.11726585 -0.13529955 -0.111620896 -0.16685128
0002d0 fd 3e 1d 3e a3 b4 9f bd 5c 7d 1b bd 25 bd f2 3d
       0.1535606 -0.077981256 -0.03796135 0.11852483
0002e0 35 58 15 bd 0a 9c 24 be e6 03 21 3e 5a 58 7e bd
       -0.036461074 -0.16075149 0.15724143 -0.062095977
0002f0 34 8e f0 3a b6 1c 19 bd bf f9 07 bd 50 d4 7c bd
       0.0018352927 -0.037380897 -0.03319716 -0.061725914
000300 05 9f 1f 3e 18 7a 17 be 0a 09 8a 3d 0f fa 1e be
       0.15588005 -0.14792669 0.06740005 -0.15525077
000310 9c ef 29 3e f0 24 f5 bd a3 4c 1f 3e 72 5c 4b bc
       0.1659531 -0.11969936 0.15556578 -0.012412177
000320 15 d4 47 3d b9 a6 7c bd 45 61 46 3d 26 be 16 3e
       0.04878624 -0.061682437 0.048432607 0.14720973
000330 02 0e 1f 3d 84 10 1e 3e 57 ed f1 3d d8 9d c5 bd
       0.03883172 0.15435988 0.11812847 -0.09649247
000340 9d 98 07 be d2 a1 1f 3d ee fc 08 be 43 aa 2f be
       -0.13241811 0.038972683 -0.13377735 -0.17154793
000350 77 26 08 3c b5 49 27 be f5 a6 e3 3d f0 d5 bd 3c
       0.008309952 -0.16336711 0.11115829 0.023173302
000360 9d c6 1e bd c2 3a 71 3d 36 64 8e 3d 16 64 d0 bc
       -0.03876363 0.058893926 0.069527075 -0.02543835
000370 25 69 c2 3d 59 a5 39 3e 0e 87 b5 3d b4 e3 c1 3d
       0.09492711 0.18129481 0.0886365 0.09467259
000380 f9 46 2b 3e a1 23 32 3e 19 5b b4 bc 76 fa 02 bd
       0.16726293 0.17396404 -0.022016095 -0.03197714
000390 cf 6a 0e 3e 6a c0 7e 3d f1 ba 67 3d f0 c6 fc 3d
       0.13907932 0.06219522 0.056574766 0.12342632
0003a0 b2 f2 d9 3d 96 c1 5b bd 72 a7 8e 3d 9e 87 1f be
       0.106419936 -0.053651415 0.069655314 -0.15579078
0003b0 97 df 0d 3e e8 04 7a bd fd 80 c7 3a b7 a5 ca 3d
       0.13854824 -0.061039835 0.0015220937 0.09894889
0003c0 eb 4a ba 3d 04 3c 10 be 73 fc 0c be 95 f4 b7 3d
       0.09096321 -0.14085394 -0.13768177 0.08982197
0003d0 05 9b 86 3d 47 82 57 be 3c a7 ee 3d e8 92 07 be
       0.065725364 -0.2104579 0.11652991 -0.13239634
0003e0 4c cb fa 3d 30 b8 15 3e c2 74 8c 3d 08 36 c8 3d
       0.12245807 0.14621043 0.06858207 0.09775931
0003f0 78 3f 57 bc 63 0a 80 bd 04 69 0e be 1a ab a5 bc
       -0.013137691 -0.06251981 -0.13907248 -0.02022319

MatMul_2 f4 [1, 32]
000000 fe 1a c2 be 5a 29 31 3d 3b a0 f4 bb 47 f4 88 bc
       -0.37911218 0.043252327 -0.00746539 -0.016718043
000010 0f 57 c7 be 25 ff b1 bd 02 b6 c2 3c d2 a0 5b 3e
       -0.38933608 -0.08691243 0.023768429 0.21448067
000020 86 8b 06 bd 31 b4 be 3c 31 d2 23 3d ab d7 d0 3d
       -0.032847904 0.023279281 0.039995376 0.101973854
000030 47 a8 05 bd a9 d4 b7 be 41 08 8d bb fd 79 bf 3d
       -0.032631185 -0.35904434 -0.0043039625 0.09349439
000040 65 13 c9 be 34 e2 6b 3d dc 02 2c 3e eb fb 3c 3d
       -0.3927261 0.05758877 0.16797966 0.046138685
000050 54 ce cd be ef ee 18 bd c5 41 c5 be 91 50 40 bd
       -0.40196478 -0.03733724 -0.3852674 -0.046951834
000060 7c 69 a7 be 67 d0 e7 3d 91 20 00 3e 3d eb 21 3e
       -0.32697666 0.113190465 0.12512423 0.15812393
000070 5b ac 0a 3e cf 51 0d be 97 8c da 3d b1 76 17 3e
       0.13542311 -0.13800739 0.10671347 0.14791371
